{"class_name": "Model", "config": {"name": "model_2", "layers": [{"name": "input_1", "class_name": "InputLayer", "config": {"batch_input_shape": [null, 82, 64, 32, 1], "dtype": "float32", "sparse": false, "name": "input_1"}, "inbound_nodes": []}, {"name": "time_distributed", "class_name": "TimeDistributed", "config": {"name": "time_distributed", "trainable": true, "dtype": "float32", "layer": {"class_name": "Conv2D", "config": {"name": "conv2d", "trainable": true, "dtype": "float32", "filters": 64, "kernel_size": [1, 1], "strides": [1, 1], "padding": "valid", "data_format": "channels_last", "dilation_rate": [1, 1], "activation": "relu", "use_bias": true, "kernel_initializer": {"class_name": "GlorotUniform", "config": {"seed": null, "dtype": "float32"}}, "bias_initializer": {"class_name": "Zeros", "config": {"dtype": "float32"}}, "kernel_regularizer": null, "bias_regularizer": null, "activity_regularizer": null, "kernel_constraint": null, "bias_constraint": null}}}, "inbound_nodes": [[["input_1", 0, 0, {}]]]}, {"name": "time_distributed_1", "class_name": "TimeDistributed", "config": {"name": "time_distributed_1", "trainable": true, "dtype": "float32", "layer": {"class_name": "BatchNormalization", "config": {"name": "batch_normalization", "trainable": true, "dtype": "float32", "axis": [3], "momentum": 0.99, "epsilon": 0.001, "center": true, "scale": true, "beta_initializer": {"class_name": "Zeros", "config": {"dtype": "float32"}}, "gamma_initializer": {"class_name": "Ones", "config": {"dtype": "float32"}}, "moving_mean_initializer": {"class_name": "Zeros", "config": {"dtype": "float32"}}, "moving_variance_initializer": {"class_name": "Ones", "config": {"dtype": "float32"}}, "beta_regularizer": null, "gamma_regularizer": null, "beta_constraint": null, "gamma_constraint": null}}}, "inbound_nodes": [[["time_distributed", 0, 0, {}]]]}, {"name": "time_distributed_2", "class_name": "TimeDistributed", "config": {"name": "time_distributed_2", "trainable": true, "dtype": "float32", "layer": {"class_name": "Conv2D", "config": {"name": "conv2d_1", "trainable": true, "dtype": "float32", "filters": 64, "kernel_size": [1, 1], "strides": [1, 1], "padding": "valid", "data_format": "channels_last", "dilation_rate": [1, 1], "activation": "relu", "use_bias": true, "kernel_initializer": {"class_name": "GlorotUniform", "config": {"seed": null, "dtype": "float32"}}, "bias_initializer": {"class_name": "Zeros", "config": {"dtype": "float32"}}, "kernel_regularizer": null, "bias_regularizer": null, "activity_regularizer": null, "kernel_constraint": null, "bias_constraint": null}}}, "inbound_nodes": [[["time_distributed_1", 0, 0, {}]]]}, {"name": "time_distributed_8", "class_name": "TimeDistributed", "config": {"name": "time_distributed_8", "trainable": true, "dtype": "float32", "layer": {"class_name": "BatchNormalization", "config": {"name": "batch_normalization_3", "trainable": true, "dtype": "float32", "axis": [3], "momentum": 0.99, "epsilon": 0.001, "center": true, "scale": true, "beta_initializer": {"class_name": "Zeros", "config": {"dtype": "float32"}}, "gamma_initializer": {"class_name": "Ones", "config": {"dtype": "float32"}}, "moving_mean_initializer": {"class_name": "Zeros", "config": {"dtype": "float32"}}, "moving_variance_initializer": {"class_name": "Ones", "config": {"dtype": "float32"}}, "beta_regularizer": null, "gamma_regularizer": null, "beta_constraint": null, "gamma_constraint": null}}}, "inbound_nodes": [[["time_distributed_2", 0, 0, {}]]]}, {"name": "time_distributed_9", "class_name": "TimeDistributed", "config": {"name": "time_distributed_9", "trainable": true, "dtype": "float32", "layer": {"class_name": "MaxPooling2D", "config": {"name": "max_pooling2d_1", "trainable": true, "dtype": null, "pool_size": [2, 2], "padding": "valid", "strides": [2, 2], "data_format": "channels_last"}}}, "inbound_nodes": [[["time_distributed_8", 0, 0, {}]]]}, {"name": "time_distributed_10", "class_name": "TimeDistributed", "config": {"name": "time_distributed_10", "trainable": true, "dtype": "float32", "layer": {"class_name": "Conv2D", "config": {"name": "conv2d_4", "trainable": true, "dtype": "float32", "filters": 256, "kernel_size": [1, 1], "strides": [1, 1], "padding": "valid", "data_format": "channels_last", "dilation_rate": [1, 1], "activation": "relu", "use_bias": true, "kernel_initializer": {"class_name": "GlorotUniform", "config": {"seed": null, "dtype": "float32"}}, "bias_initializer": {"class_name": "Zeros", "config": {"dtype": "float32"}}, "kernel_regularizer": null, "bias_regularizer": null, "activity_regularizer": null, "kernel_constraint": null, "bias_constraint": null}}}, "inbound_nodes": [[["time_distributed_9", 0, 0, {}]]]}, {"name": "time_distributed_12", "class_name": "TimeDistributed", "config": {"name": "time_distributed_12", "trainable": true, "dtype": "float32", "layer": {"class_name": "Conv2D", "config": {"name": "conv2d_5", "trainable": true, "dtype": "float32", "filters": 256, "kernel_size": [1, 1], "strides": [1, 1], "padding": "valid", "data_format": "channels_last", "dilation_rate": [1, 1], "activation": "relu", "use_bias": true, "kernel_initializer": {"class_name": "GlorotUniform", "config": {"seed": null, "dtype": "float32"}}, "bias_initializer": {"class_name": "Zeros", "config": {"dtype": "float32"}}, "kernel_regularizer": null, "bias_regularizer": null, "activity_regularizer": null, "kernel_constraint": null, "bias_constraint": null}}}, "inbound_nodes": [[["time_distributed_10", 0, 0, {}]]]}, {"name": "time_distributed_13", "class_name": "TimeDistributed", "config": {"name": "time_distributed_13", "trainable": true, "dtype": "float32", "layer": {"class_name": "BatchNormalization", "config": {"name": "batch_normalization_5", "trainable": true, "dtype": "float32", "axis": [3], "momentum": 0.99, "epsilon": 0.001, "center": true, "scale": true, "beta_initializer": {"class_name": "Zeros", "config": {"dtype": "float32"}}, "gamma_initializer": {"class_name": "Ones", "config": {"dtype": "float32"}}, "moving_mean_initializer": {"class_name": "Zeros", "config": {"dtype": "float32"}}, "moving_variance_initializer": {"class_name": "Ones", "config": {"dtype": "float32"}}, "beta_regularizer": null, "gamma_regularizer": null, "beta_constraint": null, "gamma_constraint": null}}}, "inbound_nodes": [[["time_distributed_12", 0, 0, {}]]]}, {"name": "time_distributed_14", "class_name": "TimeDistributed", "config": {"name": "time_distributed_14", "trainable": true, "dtype": "float32", "layer": {"class_name": "MaxPooling2D", "config": {"name": "max_pooling2d_2", "trainable": true, "dtype": null, "pool_size": [2, 2], "padding": "valid", "strides": [2, 2], "data_format": "channels_last"}}}, "inbound_nodes": [[["time_distributed_13", 0, 0, {}]]]}, {"name": "time_distributed_15", "class_name": "TimeDistributed", "config": {"name": "time_distributed_15", "trainable": true, "dtype": "float32", "layer": {"class_name": "Flatten", "config": {"name": "flatten", "trainable": true, "dtype": null, "data_format": "channels_last"}}}, "inbound_nodes": [[["time_distributed_14", 0, 0, {}]]]}, {"name": "time_distributed_16", "class_name": "TimeDistributed", "config": {"name": "time_distributed_16", "trainable": true, "dtype": "float32", "layer": {"class_name": "Dense", "config": {"name": "dense", "trainable": true, "dtype": "float32", "units": 24, "activation": "linear", "use_bias": true, "kernel_initializer": {"class_name": "GlorotUniform", "config": {"seed": null, "dtype": "float32"}}, "bias_initializer": {"class_name": "Zeros", "config": {"dtype": "float32"}}, "kernel_regularizer": null, "bias_regularizer": null, "activity_regularizer": null, "kernel_constraint": null, "bias_constraint": null}}}, "inbound_nodes": [[["time_distributed_15", 0, 0, {}]]]}, {"name": "bidirectional", "class_name": "Bidirectional", "config": {"name": "bidirectional", "trainable": true, "dtype": "float32", "layer": {"class_name": "LSTM", "config": {"name": "lstm", "trainable": true, "dtype": null, "return_sequences": true, "return_state": false, "go_backwards": false, "stateful": false, "unroll": false, "time_major": false, "units": 128, "activation": "tanh", "recurrent_activation": "hard_sigmoid", "use_bias": true, "kernel_initializer": {"class_name": "GlorotUniform", "config": {"seed": null, "dtype": "float32"}}, "recurrent_initializer": {"class_name": "Orthogonal", "config": {"gain": 1.0, "seed": null, "dtype": "float32"}}, "bias_initializer": {"class_name": "Zeros", "config": {"dtype": "float32"}}, "unit_forget_bias": true, "kernel_regularizer": null, "recurrent_regularizer": null, "bias_regularizer": null, "activity_regularizer": null, "kernel_constraint": null, "recurrent_constraint": null, "bias_constraint": null, "dropout": 0.1, "recurrent_dropout": 0.0, "implementation": 1}}, "merge_mode": "concat"}, "inbound_nodes": [[["time_distributed_16", 0, 0, {}]]]}, {"name": "bidirectional_1", "class_name": "Bidirectional", "config": {"name": "bidirectional_1", "trainable": true, "dtype": "float32", "layer": {"class_name": "LSTM", "config": {"name": "lstm_1", "trainable": true, "dtype": null, "return_sequences": true, "return_state": false, "go_backwards": false, "stateful": false, "unroll": false, "time_major": false, "units": 128, "activation": "tanh", "recurrent_activation": "hard_sigmoid", "use_bias": true, "kernel_initializer": {"class_name": "GlorotUniform", "config": {"seed": null, "dtype": "float32"}}, "recurrent_initializer": {"class_name": "Orthogonal", "config": {"gain": 1.0, "seed": null, "dtype": "float32"}}, "bias_initializer": {"class_name": "Zeros", "config": {"dtype": "float32"}}, "unit_forget_bias": true, "kernel_regularizer": null, "recurrent_regularizer": null, "bias_regularizer": null, "activity_regularizer": null, "kernel_constraint": null, "recurrent_constraint": null, "bias_constraint": null, "dropout": 0.1, "recurrent_dropout": 0.0, "implementation": 1}}, "merge_mode": "concat"}, "inbound_nodes": [[["bidirectional", 0, 0, {}]]]}, {"name": "bidirectional_2", "class_name": "Bidirectional", "config": {"name": "bidirectional_2", "trainable": true, "dtype": "float32", "layer": {"class_name": "LSTM", "config": {"name": "lstm_2", "trainable": true, "dtype": null, "return_sequences": true, "return_state": false, "go_backwards": false, "stateful": false, "unroll": false, "time_major": false, "units": 128, "activation": "tanh", "recurrent_activation": "hard_sigmoid", "use_bias": true, "kernel_initializer": {"class_name": "GlorotUniform", "config": {"seed": null, "dtype": "float32"}}, "recurrent_initializer": {"class_name": "Orthogonal", "config": {"gain": 1.0, "seed": null, "dtype": "float32"}}, "bias_initializer": {"class_name": "Zeros", "config": {"dtype": "float32"}}, "unit_forget_bias": true, "kernel_regularizer": null, "recurrent_regularizer": null, "bias_regularizer": null, "activity_regularizer": null, "kernel_constraint": null, "recurrent_constraint": null, "bias_constraint": null, "dropout": 0.1, "recurrent_dropout": 0.0, "implementation": 1}}, "merge_mode": "concat"}, "inbound_nodes": [[["bidirectional_1", 0, 0, {}]]]}, {"name": "labels", "class_name": "InputLayer", "config": {"batch_input_shape": [null, null], "dtype": "float32", "sparse": false, "name": "labels"}, "inbound_nodes": []}, {"name": "input_length", "class_name": "InputLayer", "config": {"batch_input_shape": [null, 1], "dtype": "float32", "sparse": false, "name": "input_length"}, "inbound_nodes": []}, {"name": "label_length", "class_name": "InputLayer", "config": {"batch_input_shape": [null, 1], "dtype": "float32", "sparse": false, "name": "label_length"}, "inbound_nodes": []}, {"name": "CTCloss", "class_name": "Lambda", "config": {"name": "CTCloss", "trainable": true, "dtype": "float32", "function": ["4wEAAAAAAAAABQAAAAYAAABDAAAAcxwAAAB8AC8EfQF9An0DfQR0AKABfAJ8AXwDfAShBFMAKQH6\nvAogICAgICAgIEZ1bmN0aW9uIGZvciBjb21wdXRpbmcgdGhlIGN0YyBsb3NzIChjYW4gYmUgcHV0\nIGluIGEgTGFtYmRhIGxheWVyKQogICAgICAgIDpwYXJhbSBhcmdzOiAKICAgICAgICAgICAgeV9w\ncmVkLCBsYWJlbHMsIGlucHV0X2xlbmd0aCwgbGFiZWxfbGVuZ3RoCiAgICAgICAgOnJldHVybjog\nQ1RDIGxvc3MgCiAgICAgICAgKQLaAUvaDmN0Y19iYXRjaF9jb3N0KQXaBGFyZ3PaBnlfcHJlZNoG\nbGFiZWxz2gxpbnB1dF9sZW5ndGjaDGxhYmVsX2xlbmd0aKkAcgkAAAD6LUU6L0NvZGUvVGVzdC9U\naW1lRGlzdHJpYnV0ZWQtQ1JOTi9DVENNb2RlbC5wedoUY3RjX2xvc3NfbGFtYmRhX2Z1bmNBAwAA\ncwQAAAAACQwB\n", null, null], "function_type": "lambda", "module": "CTCModel", "output_shape": [1], "output_shape_type": "raw", "output_shape_module": null, "arguments": {}}, "inbound_nodes": [[["bidirectional_2", 0, 0, {}], ["labels", 0, 0, {}], ["input_length", 0, 0, {}], ["label_length", 0, 0, {}]]]}], "input_layers": [["input_1", 0, 0], ["labels", 0, 0], ["input_length", 0, 0], ["label_length", 0, 0]], "output_layers": [["CTCloss", 0, 0]]}, "keras_version": "2.2.4-tf", "backend": "tensorflow"}