{"class_name": "Model", "config": {"name": "model_3", "layers": [{"name": "input_1", "class_name": "InputLayer", "config": {"batch_input_shape": [null, 82, 64, 32, 1], "dtype": "float32", "sparse": false, "name": "input_1"}, "inbound_nodes": []}, {"name": "time_distributed", "class_name": "TimeDistributed", "config": {"name": "time_distributed", "trainable": true, "dtype": "float32", "layer": {"class_name": "Conv2D", "config": {"name": "conv2d", "trainable": true, "dtype": "float32", "filters": 64, "kernel_size": [1, 1], "strides": [1, 1], "padding": "valid", "data_format": "channels_last", "dilation_rate": [1, 1], "activation": "relu", "use_bias": true, "kernel_initializer": {"class_name": "GlorotUniform", "config": {"seed": null, "dtype": "float32"}}, "bias_initializer": {"class_name": "Zeros", "config": {"dtype": "float32"}}, "kernel_regularizer": null, "bias_regularizer": null, "activity_regularizer": null, "kernel_constraint": null, "bias_constraint": null}}}, "inbound_nodes": [[["input_1", 0, 0, {}]]]}, {"name": "time_distributed_1", "class_name": "TimeDistributed", "config": {"name": "time_distributed_1", "trainable": true, "dtype": "float32", "layer": {"class_name": "BatchNormalization", "config": {"name": "batch_normalization", "trainable": true, "dtype": "float32", "axis": [3], "momentum": 0.99, "epsilon": 0.001, "center": true, "scale": true, "beta_initializer": {"class_name": "Zeros", "config": {"dtype": "float32"}}, "gamma_initializer": {"class_name": "Ones", "config": {"dtype": "float32"}}, "moving_mean_initializer": {"class_name": "Zeros", "config": {"dtype": "float32"}}, "moving_variance_initializer": {"class_name": "Ones", "config": {"dtype": "float32"}}, "beta_regularizer": null, "gamma_regularizer": null, "beta_constraint": null, "gamma_constraint": null}}}, "inbound_nodes": [[["time_distributed", 0, 0, {}]]]}, {"name": "time_distributed_2", "class_name": "TimeDistributed", "config": {"name": "time_distributed_2", "trainable": true, "dtype": "float32", "layer": {"class_name": "Conv2D", "config": {"name": "conv2d_1", "trainable": true, "dtype": "float32", "filters": 64, "kernel_size": [1, 1], "strides": [1, 1], "padding": "valid", "data_format": "channels_last", "dilation_rate": [1, 1], "activation": "relu", "use_bias": true, "kernel_initializer": {"class_name": "GlorotUniform", "config": {"seed": null, "dtype": "float32"}}, "bias_initializer": {"class_name": "Zeros", "config": {"dtype": "float32"}}, "kernel_regularizer": null, "bias_regularizer": null, "activity_regularizer": null, "kernel_constraint": null, "bias_constraint": null}}}, "inbound_nodes": [[["time_distributed_1", 0, 0, {}]]]}, {"name": "time_distributed_8", "class_name": "TimeDistributed", "config": {"name": "time_distributed_8", "trainable": true, "dtype": "float32", "layer": {"class_name": "BatchNormalization", "config": {"name": "batch_normalization_3", "trainable": true, "dtype": "float32", "axis": [3], "momentum": 0.99, "epsilon": 0.001, "center": true, "scale": true, "beta_initializer": {"class_name": "Zeros", "config": {"dtype": "float32"}}, "gamma_initializer": {"class_name": "Ones", "config": {"dtype": "float32"}}, "moving_mean_initializer": {"class_name": "Zeros", "config": {"dtype": "float32"}}, "moving_variance_initializer": {"class_name": "Ones", "config": {"dtype": "float32"}}, "beta_regularizer": null, "gamma_regularizer": null, "beta_constraint": null, "gamma_constraint": null}}}, "inbound_nodes": [[["time_distributed_2", 0, 0, {}]]]}, {"name": "time_distributed_9", "class_name": "TimeDistributed", "config": {"name": "time_distributed_9", "trainable": true, "dtype": "float32", "layer": {"class_name": "MaxPooling2D", "config": {"name": "max_pooling2d_1", "trainable": true, "dtype": null, "pool_size": [2, 2], "padding": "valid", "strides": [2, 2], "data_format": "channels_last"}}}, "inbound_nodes": [[["time_distributed_8", 0, 0, {}]]]}, {"name": "time_distributed_10", "class_name": "TimeDistributed", "config": {"name": "time_distributed_10", "trainable": true, "dtype": "float32", "layer": {"class_name": "Conv2D", "config": {"name": "conv2d_4", "trainable": true, "dtype": "float32", "filters": 256, "kernel_size": [1, 1], "strides": [1, 1], "padding": "valid", "data_format": "channels_last", "dilation_rate": [1, 1], "activation": "relu", "use_bias": true, "kernel_initializer": {"class_name": "GlorotUniform", "config": {"seed": null, "dtype": "float32"}}, "bias_initializer": {"class_name": "Zeros", "config": {"dtype": "float32"}}, "kernel_regularizer": null, "bias_regularizer": null, "activity_regularizer": null, "kernel_constraint": null, "bias_constraint": null}}}, "inbound_nodes": [[["time_distributed_9", 0, 0, {}]]]}, {"name": "time_distributed_12", "class_name": "TimeDistributed", "config": {"name": "time_distributed_12", "trainable": true, "dtype": "float32", "layer": {"class_name": "Conv2D", "config": {"name": "conv2d_5", "trainable": true, "dtype": "float32", "filters": 256, "kernel_size": [1, 1], "strides": [1, 1], "padding": "valid", "data_format": "channels_last", "dilation_rate": [1, 1], "activation": "relu", "use_bias": true, "kernel_initializer": {"class_name": "GlorotUniform", "config": {"seed": null, "dtype": "float32"}}, "bias_initializer": {"class_name": "Zeros", "config": {"dtype": "float32"}}, "kernel_regularizer": null, "bias_regularizer": null, "activity_regularizer": null, "kernel_constraint": null, "bias_constraint": null}}}, "inbound_nodes": [[["time_distributed_10", 0, 0, {}]]]}, {"name": "time_distributed_13", "class_name": "TimeDistributed", "config": {"name": "time_distributed_13", "trainable": true, "dtype": "float32", "layer": {"class_name": "BatchNormalization", "config": {"name": "batch_normalization_5", "trainable": true, "dtype": "float32", "axis": [3], "momentum": 0.99, "epsilon": 0.001, "center": true, "scale": true, "beta_initializer": {"class_name": "Zeros", "config": {"dtype": "float32"}}, "gamma_initializer": {"class_name": "Ones", "config": {"dtype": "float32"}}, "moving_mean_initializer": {"class_name": "Zeros", "config": {"dtype": "float32"}}, "moving_variance_initializer": {"class_name": "Ones", "config": {"dtype": "float32"}}, "beta_regularizer": null, "gamma_regularizer": null, "beta_constraint": null, "gamma_constraint": null}}}, "inbound_nodes": [[["time_distributed_12", 0, 0, {}]]]}, {"name": "time_distributed_14", "class_name": "TimeDistributed", "config": {"name": "time_distributed_14", "trainable": true, "dtype": "float32", "layer": {"class_name": "MaxPooling2D", "config": {"name": "max_pooling2d_2", "trainable": true, "dtype": null, "pool_size": [2, 2], "padding": "valid", "strides": [2, 2], "data_format": "channels_last"}}}, "inbound_nodes": [[["time_distributed_13", 0, 0, {}]]]}, {"name": "time_distributed_15", "class_name": "TimeDistributed", "config": {"name": "time_distributed_15", "trainable": true, "dtype": "float32", "layer": {"class_name": "Flatten", "config": {"name": "flatten", "trainable": true, "dtype": null, "data_format": "channels_last"}}}, "inbound_nodes": [[["time_distributed_14", 0, 0, {}]]]}, {"name": "time_distributed_16", "class_name": "TimeDistributed", "config": {"name": "time_distributed_16", "trainable": true, "dtype": "float32", "layer": {"class_name": "Dense", "config": {"name": "dense", "trainable": true, "dtype": "float32", "units": 24, "activation": "linear", "use_bias": true, "kernel_initializer": {"class_name": "GlorotUniform", "config": {"seed": null, "dtype": "float32"}}, "bias_initializer": {"class_name": "Zeros", "config": {"dtype": "float32"}}, "kernel_regularizer": null, "bias_regularizer": null, "activity_regularizer": null, "kernel_constraint": null, "bias_constraint": null}}}, "inbound_nodes": [[["time_distributed_15", 0, 0, {}]]]}, {"name": "bidirectional", "class_name": "Bidirectional", "config": {"name": "bidirectional", "trainable": true, "dtype": "float32", "layer": {"class_name": "LSTM", "config": {"name": "lstm", "trainable": true, "dtype": null, "return_sequences": true, "return_state": false, "go_backwards": false, "stateful": false, "unroll": false, "time_major": false, "units": 128, "activation": "tanh", "recurrent_activation": "hard_sigmoid", "use_bias": true, "kernel_initializer": {"class_name": "GlorotUniform", "config": {"seed": null, "dtype": "float32"}}, "recurrent_initializer": {"class_name": "Orthogonal", "config": {"gain": 1.0, "seed": null, "dtype": "float32"}}, "bias_initializer": {"class_name": "Zeros", "config": {"dtype": "float32"}}, "unit_forget_bias": true, "kernel_regularizer": null, "recurrent_regularizer": null, "bias_regularizer": null, "activity_regularizer": null, "kernel_constraint": null, "recurrent_constraint": null, "bias_constraint": null, "dropout": 0.1, "recurrent_dropout": 0.0, "implementation": 1}}, "merge_mode": "concat"}, "inbound_nodes": [[["time_distributed_16", 0, 0, {}]]]}, {"name": "bidirectional_1", "class_name": "Bidirectional", "config": {"name": "bidirectional_1", "trainable": true, "dtype": "float32", "layer": {"class_name": "LSTM", "config": {"name": "lstm_1", "trainable": true, "dtype": null, "return_sequences": true, "return_state": false, "go_backwards": false, "stateful": false, "unroll": false, "time_major": false, "units": 128, "activation": "tanh", "recurrent_activation": "hard_sigmoid", "use_bias": true, "kernel_initializer": {"class_name": "GlorotUniform", "config": {"seed": null, "dtype": "float32"}}, "recurrent_initializer": {"class_name": "Orthogonal", "config": {"gain": 1.0, "seed": null, "dtype": "float32"}}, "bias_initializer": {"class_name": "Zeros", "config": {"dtype": "float32"}}, "unit_forget_bias": true, "kernel_regularizer": null, "recurrent_regularizer": null, "bias_regularizer": null, "activity_regularizer": null, "kernel_constraint": null, "recurrent_constraint": null, "bias_constraint": null, "dropout": 0.1, "recurrent_dropout": 0.0, "implementation": 1}}, "merge_mode": "concat"}, "inbound_nodes": [[["bidirectional", 0, 0, {}]]]}, {"name": "bidirectional_2", "class_name": "Bidirectional", "config": {"name": "bidirectional_2", "trainable": true, "dtype": "float32", "layer": {"class_name": "LSTM", "config": {"name": "lstm_2", "trainable": true, "dtype": null, "return_sequences": true, "return_state": false, "go_backwards": false, "stateful": false, "unroll": false, "time_major": false, "units": 128, "activation": "tanh", "recurrent_activation": "hard_sigmoid", "use_bias": true, "kernel_initializer": {"class_name": "GlorotUniform", "config": {"seed": null, "dtype": "float32"}}, "recurrent_initializer": {"class_name": "Orthogonal", "config": {"gain": 1.0, "seed": null, "dtype": "float32"}}, "bias_initializer": {"class_name": "Zeros", "config": {"dtype": "float32"}}, "unit_forget_bias": true, "kernel_regularizer": null, "recurrent_regularizer": null, "bias_regularizer": null, "activity_regularizer": null, "kernel_constraint": null, "recurrent_constraint": null, "bias_constraint": null, "dropout": 0.1, "recurrent_dropout": 0.0, "implementation": 1}}, "merge_mode": "concat"}, "inbound_nodes": [[["bidirectional_1", 0, 0, {}]]]}, {"name": "input_length", "class_name": "InputLayer", "config": {"batch_input_shape": [null, 1], "dtype": "float32", "sparse": false, "name": "input_length"}, "inbound_nodes": []}, {"name": "CTCdecode", "class_name": "Lambda", "config": {"name": "CTCdecode", "trainable": true, "dtype": "float32", "function": ["4wEAAAAAAAAABQAAAAgAAABLAAAAc1QAAAB8AC8CfQJ9A3wBfQR0AKABoQBkAWsCcxx0AoIBdABq\nA3QAagR8AnQFoAZ8A6EBfARkAhkAfARkAxkAfARkBBkAZAWNBWQGGQBkBhkAZAdkCI0CUwApCeEG\nAQAACiAgICAgICAgQ29tcGxldGUgQ1RDIGRlY29kaW5nIHVzaW5nIEtlcmFzIChmdW5jdGlvbiBL\nLmN0Y19kZWNvZGUpCiAgICAgICAgOnBhcmFtIGFyZ3M6IAogICAgICAgICAgICB5X3ByZWQsIGlu\ncHV0X2xlbmd0aAogICAgICAgIDpwYXJhbSBhcmd1bWVudHM6CiAgICAgICAgICAgIGdyZWVkeSwg\nYmVhbV93aWR0aCwgdG9wX3BhdGhzCiAgICAgICAgOnJldHVybjogCiAgICAgICAgICAgIEsuY3Rj\nX2RlY29kZSB3aXRoIGR0eXBlPSdmbG9hdDMyJwogICAgICAgINoKdGVuc29yZmxvd9oGZ3JlZWR5\n2gpiZWFtX3dpZHRo2gl0b3BfcGF0aHMpA3IDAAAAcgQAAAByBQAAAOkAAAAA2gdmbG9hdDMyKQHa\nBWR0eXBlKQfaAUvaB2JhY2tlbmTaDkFzc2VydGlvbkVycm9y2gRjYXN02gpjdGNfZGVjb2Rl2gJ0\nZtoHc3F1ZWV6ZSkF2gRhcmdz2glhcmd1bWVudHPaBnlfcHJlZNoMaW5wdXRfbGVuZ3Ro2glteV9w\nYXJhbXOpAHIVAAAA+i1FOi9Db2RlL1Rlc3QvVGltZURpc3RyaWJ1dGVkLUNSTk4vQ1RDTW9kZWwu\ncHnaIWN0Y19jb21wbGV0ZV9kZWNvZGluZ19sYW1iZGFfZnVuY04DAABzCAAAAAAOCAEEAhAC\n", null, null], "function_type": "lambda", "module": "CTCModel", "output_shape": [null, null], "output_shape_type": "raw", "output_shape_module": null, "arguments": {"greedy": true, "beam_width": 100, "top_paths": 1}}, "inbound_nodes": [[["bidirectional_2", 0, 0, {}], ["input_length", 0, 0, {}]]]}], "input_layers": [["input_1", 0, 0], ["input_length", 0, 0]], "output_layers": [["CTCdecode", 0, 0]]}, "keras_version": "2.2.4-tf", "backend": "tensorflow"}